{
  "job_id": "099f52ecf648",
  "run_id": "20260309_174019_20469a",
  "run_dir": "/Users/davidmontgomery/football_pose_workbench/backend/training_runs/20260309_174019_20469a",
  "status": "failed",
  "progress": 12.0,
  "current_epoch": 6,
  "total_epochs": 50,
  "logs": [
    "[17:40:49]   9                  -1  1    164608  ultralytics.nn.modules.block.SPPF            [256, 256, 5]",
    "[17:40:49]  10                  -1  1    249728  ultralytics.nn.modules.block.C2PSA           [256, 256, 1]",
    "[17:40:49]  11                  -1  1         0  torch.nn.modules.upsampling.Upsample         [None, 2, 'nearest']",
    "[17:40:49]  12             [-1, 6]  1         0  ultralytics.nn.modules.conv.Concat           [1]",
    "[17:40:49]  13                  -1  1    111296  ultralytics.nn.modules.block.C3k2            [384, 128, 1, False]",
    "[17:40:49]  14                  -1  1         0  torch.nn.modules.upsampling.Upsample         [None, 2, 'nearest']",
    "[17:40:49]  15             [-1, 4]  1         0  ultralytics.nn.modules.conv.Concat           [1]",
    "[17:40:49]  16                  -1  1     32096  ultralytics.nn.modules.block.C3k2            [256, 64, 1, False]",
    "[17:40:49]  17                  -1  1     36992  ultralytics.nn.modules.conv.Conv             [64, 64, 3, 2]",
    "[17:40:49]  18            [-1, 13]  1         0  ultralytics.nn.modules.conv.Concat           [1]",
    "[17:40:49]  19                  -1  1     86720  ultralytics.nn.modules.block.C3k2            [192, 128, 1, False]",
    "[17:40:49]  20                  -1  1    147712  ultralytics.nn.modules.conv.Conv             [128, 128, 3, 2]",
    "[17:40:49]  21            [-1, 10]  1         0  ultralytics.nn.modules.conv.Concat           [1]",
    "[17:40:49]  22                  -1  1    378880  ultralytics.nn.modules.block.C3k2            [384, 256, 1, True]",
    "[17:40:49]  23        [16, 19, 22]  1    431452  ultralytics.nn.modules.head.Detect           [4, [64, 128, 256]]",
    "[17:40:49] YOLO11n summary: 181 layers, 2,590,620 parameters, 2,590,604 gradients, 6.4 GFLOPs",
    "[17:40:49] Transferred 493/499 items from pretrained weights",
    "[17:40:49] Freezing layer 'model.23.dfl.conv.weight'",
    "[17:40:49] \u001b[34m\u001b[1mtrain: \u001b[0mScanning /Users/davidmontgomery/football_pose_workbench/backend/datasets/huggingface/martinjolif_football_player_detection/data/train/labels.cache... 298 images, 0 backgrounds, 0 corrupt: 100%|\u2588\u2588\u2588\u2588\u2588\u2588\u2588\u2588\u2588\u2588| 298/298 [00:00<?, ?it/s]",
…
