…
ees=0.0, translate=0.1, scale=0.5, shear=0.0, perspective=0.0, flipud=0.0, fliplr=0.5, bgr=0.0, mosaic=1.0, mixup=0.0, copy_paste=0.0, copy_paste_mode=flip, auto_augment=randaugment, erasing=0.4, crop_fraction=1.0, cfg=None, tracker=botsort.yaml, save_dir=/Users/davidmontgomery/football_pose_workbench/backend/training_runs/20260308_232225_e8d67f/yolo_output/train",
    "[23:22:40] Overriding model.yaml nc=3 with nc=4",
    "[23:22:40]                    from  n    params  module                                       arguments",
    "[23:22:40]   0                  -1  1       464  ultralytics.nn.modules.conv.Conv             [3, 16, 3, 2]",
    "[23:22:40]   1                  -1  1      4672  ultralytics.nn.modules.conv.Conv             [16, 32, 3, 2]",
    "[23:22:40]   2                  -1  1      6640  ultralytics.nn.modules.block.C3k2            [32, 64, 1, False, 0.25]",
    "[23:22:40]   3                  -1  1     36992  ultralytics.nn.modules.conv.Conv             [64, 64, 3, 2]",
    "[23:22:40]   4                  -1  1     26080  ultralytics.nn.modules.block.C3k2            [64, 128, 1, False, 0.25]",
    "[23:22:40]   5                  -1  1    147712  ultralytics.nn.modules.conv.Conv             [128, 128, 3, 2]",
    "[23:22:40]   6                  -1  1     87040  ultralytics.nn.modules.block.C3k2            [128, 128, 1, True]",
    "[23:22:40]   7                  -1  1    295424  ultralytics.nn.modules.conv.Conv             [128, 256, 3, 2]",
    "[23:22:40]   8                  -1  1    346112  ultralytics.nn.modules.block.C3k2            [256, 256, 1, True]",
    "[23:22:40]   9                  -1  1    164608  ultralytics.nn.modules.block.SPPF            [256, 256, 5]",
    "[23:22:40]  10                  -1  1    249728  ultralytics.nn.modules.block.C2PSA           [256, 256, 1]",
    "[23:22:40]  11                  -1  1         0  torch.nn.modules.upsampling.Upsample         [None, 2, 'nearest']",
    "[23:22:40]  12             [-1, 6]  1         0  ultralytics.nn.modules.conv.Concat           [1]",
    "[23:22:40]  13                  -1  1    111296  ultralytics.nn.modules.block.C3k2            [384, 128, 1, False]",
    "[23:22:40]  14                  -1  1         0  torch.nn.modules.upsampling.Upsample         [None, 2, 'nearest']",
    "[23:22:40]  15             [-1, 4]  1         0  ultralytics.nn.modules.conv.Concat           [1]",
    "[23:22:40]  16                  -1  1     32096  ultralytics.nn.modules.block.C3k2            [256, 64, 1, False]",
    "[23:22:40]  17                  -1  1     36992  ultralytics.nn.modules.conv.Conv             [64, 64, 3, 2]",
    "[23:22:40]  18            [-1, 13]  1         0  ultralytics.nn.modules.conv.Concat           [1]",
    "[23:22:40]  19                  -1  1     86720  ultralytics.nn.modules.block.C3k2            [192, 128, 1, False]",
    "[23:22:40]  20                  -1  1    147712  ultralytics.nn.modules.conv.Conv             [128, 128, 3, 2]",
    "[23:22:40]  21            [-1, 10]  1         0  ultralytics.nn.modules.conv.Concat           [1]",
    "[23:22:40]  22                  -1  1    378880  ultralytics.nn.modules.block.C3k2            [384, 256, 1, True]",
    "[23:22:40]  23        [16, 19, 22]  1    431452  ultralytics.nn.modules.head.Detect           [4, [64, 128, 256]]",
    "[23:22:40] YOLO11n summary: 181 layers, 2,590,620 parameters, 2,590,604 gradients, 6.4 GFLOPs",
    "[23:22:40] Transferred 493/499 items from pretrained weights",
    "[23:22:40] Freezing layer 'model.23.dfl.conv.weight'",
    "[23:22:40] \u001b[34m\u001b[1mtrain: \u001b[0mScanning /private/tmp/fpw_train_smoke/labels/train...:   0%|          | 0/1 [00:00<?, ?it/s]",
    "[23:22:40] \u001b[34m\u001b[1mtrain: \u001b[0mScanning /private/tmp/fpw_train_smoke/labels/train... 1 images, 1 backgrounds, 0 corrupt: 100%|\u2588\u2588\u2588\u2588\u2588\u2588\u2588\u2588\u2588\u2588| 1/1 [00:00<00:00,  8.17it/s]",
…
