…
ees=0.0, translate=0.1, scale=0.5, shear=0.0, perspective=0.0, flipud=0.0, fliplr=0.5, bgr=0.0, mosaic=1.0, mixup=0.0, copy_paste=0.0, copy_paste_mode=flip, auto_augment=randaugment, erasing=0.4, crop_fraction=1.0, cfg=None, tracker=botsort.yaml, save_dir=/Users/davidmontgomery/football_pose_workbench/backend/training_runs/20260309_165701_1d7167/yolo_output/train",
    "[16:57:13] Overriding model.yaml nc=3 with nc=4",
    "[16:57:13]                    from  n    params  module                                       arguments",
    "[16:57:13]   0                  -1  1       464  ultralytics.nn.modules.conv.Conv             [3, 16, 3, 2]",
    "[16:57:13]   1                  -1  1      4672  ultralytics.nn.modules.conv.Conv             [16, 32, 3, 2]",
    "[16:57:13]   2                  -1  1      6640  ultralytics.nn.modules.block.C3k2            [32, 64, 1, False, 0.25]",
    "[16:57:13]   3                  -1  1     36992  ultralytics.nn.modules.conv.Conv             [64, 64, 3, 2]",
    "[16:57:13]   4                  -1  1     26080  ultralytics.nn.modules.block.C3k2            [64, 128, 1, False, 0.25]",
    "[16:57:13]   5                  -1  1    147712  ultralytics.nn.modules.conv.Conv             [128, 128, 3, 2]",
    "[16:57:13]   6                  -1  1     87040  ultralytics.nn.modules.block.C3k2            [128, 128, 1, True]",
    "[16:57:13]   7                  -1  1    295424  ultralytics.nn.modules.conv.Conv             [128, 256, 3, 2]",
    "[16:57:13]   8                  -1  1    346112  ultralytics.nn.modules.block.C3k2            [256, 256, 1, True]",
    "[16:57:13]   9                  -1  1    164608  ultralytics.nn.modules.block.SPPF            [256, 256, 5]",
    "[16:57:13]  10                  -1  1    249728  ultralytics.nn.modules.block.C2PSA           [256, 256, 1]",
    "[16:57:13]  11                  -1  1         0  torch.nn.modules.upsampling.Upsample         [None, 2, 'nearest']",
    "[16:57:13]  12             [-1, 6]  1         0  ultralytics.nn.modules.conv.Concat           [1]",
    "[16:57:13]  13                  -1  1    111296  ultralytics.nn.modules.block.C3k2            [384, 128, 1, False]",
    "[16:57:13]  14                  -1  1         0  torch.nn.modules.upsampling.Upsample         [None, 2, 'nearest']",
    "[16:57:13]  15             [-1, 4]  1         0  ultralytics.nn.modules.conv.Concat           [1]",
    "[16:57:13]  16                  -1  1     32096  ultralytics.nn.modules.block.C3k2            [256, 64, 1, False]",
    "[16:57:13]  17                  -1  1     36992  ultralytics.nn.modules.conv.Conv             [64, 64, 3, 2]",
    "[16:57:13]  18            [-1, 13]  1         0  ultralytics.nn.modules.conv.Concat           [1]",
    "[16:57:13]  19                  -1  1     86720  ultralytics.nn.modules.block.C3k2            [192, 128, 1, False]",
    "[16:57:13]  20                  -1  1    147712  ultralytics.nn.modules.conv.Conv             [128, 128, 3, 2]",
    "[16:57:13]  21            [-1, 10]  1         0  ultralytics.nn.modules.conv.Concat           [1]",
    "[16:57:13]  22                  -1  1    378880  ultralytics.nn.modules.block.C3k2            [384, 256, 1, True]",
    "[16:57:13]  23        [16, 19, 22]  1    431452  ultralytics.nn.modules.head.Detect           [4, [64, 128, 256]]",
    "[16:57:13] YOLO11n summary: 181 layers, 2,590,620 parameters, 2,590,604 gradients, 6.4 GFLOPs",
    "[16:57:13] Transferred 493/499 items from pretrained weights",
    "[16:57:13] Freezing layer 'model.23.dfl.conv.weight'",
    "[16:57:13] \u001b[34m\u001b[1mtrain: \u001b[0mScanning /private/tmp/fpw_train_valid_v1/labels/train.cache... 4 images, 0 backgrounds, 0 corrupt: 100%|\u2588\u2588\u2588\u2588\u2588\u2588\u2588\u2588\u2588\u2588| 4/4 [00:00<?, ?it/s]",
…
